examples/nxp/experimental/cifar_net/cifar_net.pth (torch, 377520 bytes, 8 tensors)

conv1.weight f4 [32, 8, 5, 5]
0	0xbc3d1617	-0.011540911
1	0x3d880cf8	0.066430986
2	0x3c023608	0.007947452
3	0xbdbdbdb8	-0.092647016
4	0x3cb2d0ca	0.021828074
5	0xbd6ba7b5	-0.057532985
6	0xbd88504d	-0.06655941
7	0x3c7e44ad	0.015519303
8	0x3c0ffac4	0.0087878145
9	0xbb4b7194	-0.003104304
10	0xbdbb0194	-0.091311604
11	0xbd9ea69a	-0.077466205
12	0xbdcae89c	-0.09907648
13	0xbd28a1ae	-0.041169815
14	0xbd44ab20	-0.04801476
15	0x3dcdb197	0.10043638
16	0x3d838d45	0.064234294
17	0xbd5c615a	-0.05380378
18	0xb8d7bee1	-0.00010287553
19	0x3cbed9ba	0.02329718
20	0xbc23c695	-0.009996076
21	0x3ce8124c	0.028329037
22	0xbcfd5e69	-0.030928807
23	0x3d2f09ff	0.042734142
24	0xbc6ecba5	-0.01457492
25	0x3dad6925	0.0846732
26	0x3d301e60	0.042997718
27	0x3d0da7a7	0.034583714
28	0xbc580bc4	-0.013186399
29	0x3c31525e	0.0108228605
30	0x3d0a66da	0.033789493
31	0xbbcbb39c	-0.0062164795
32	0xbd353fe8	-0.0442504
33	0xbda9f926	-0.082994744
34	0x3dd4216c	0.10357937
35	0x3cd08a2c	0.02545651
36	0x3cdc747e	0.026911017
37	0x3d4403dc	0.047855243
38	0x3c65dce1	0.014029712
39	0x3bfd094f	0.007722057
40	0x3de5f747	0.11228805
41	0x3da49e70	0.08038032
42	0xbcecc58d	-0.028902793
43	0x3de1e9b5	0.11030904
44	0x3d8e37b5	0.06944219
45	0xbccae04d	-0.024765158
46	0x3d541a0a	0.051782645
47	0xbd0943bb	-0.03351186
48	0x3d9e957b	0.07743355
49	0xbd0d08ef	-0.034432348
50	0xbd578187	-0.05261376
51	0xbc83b40a	-0.01607706
52	0xbbac859f	-0.0052649523
53	0xbd906a1a	-0.07051487
54	0x3d555e74	0.05209203
55	0xbd4d2da1	-0.050092343
56	0x3c6b1122	0.0143473465
57	0x3d5dac11	0.054119173
58	0xbda7e2b9	-0.08197541
59	0x3d9f6857	0.07783573
60	0xbd8c586c	-0.06852803
61	0xbcae1f87	-0.021255268
62	0xbd9f29c0	-0.07771635
63	0xbd9ca484	-0.07648566
64	0x3d13cdd3	0.03608496
65	0x3d87e313	0.06635108
66	0x3cb2a989	0.021809356
67	0xbc776b97	-0.015101335
68	0xbcd528d2	-0.026020441
69	0xbd53ac42	-0.05167795
70	0xbc3e50a5	-0.011615907
71	0xbdad624a	-0.08466013
72	0x3d7cb57b	0.06169651
73	0x3d870be7	0.06594067
74	0xbd26baa8	-0.040705353
75	0xbd84df38	-0.06487888
76	0x3d8e8388	0.06958681
77	0x3d75bd89	0.059995208
78	0x3c10653f	0.008813201
79	0xbd87bc65	-0.0662773
80	0x3c9702e4	0.018433996
81	0x3d5f949a	0.054585077
82	0x3d2a09a1	0.04151309
83	0xbd2386c6	-0.03992345
84	0xbd7eeb27	-0.062235978
85	0x3d0d7ea2	0.034544595
86	0xbd6c2b40	-0.057658434
87	0x3d4b4f33	0.049636077
88	0xbc8fab98	-0.017537877
89	0xbd061358	-0.03273329
90	0xbd21dfe6	-0.039520167
91	0x3d186405	0.03720476
92	0x3c11b1cc	0.008892488
93	0xbd560ab9	-0.05225632
94	0x3b5788d1	0.0032887945
95	0xbada4c11	-0.001665475
96	0xbcefcf59	-0.029273676
97	0x3d8db0c2	0.069184795
98	0x3d2e0895	0.042488653
99	0xbd1ca847	-0.03824642
100	0xbccbf946	-0.024899136
101	0x3cf620a0	0.030044854
102	0xbcf75f7f	-0.030196903
103	0xbd0061c0	-0.03134322
104	0x3d5c24ff	0.05374622
105	0xbd86e875	-0.065873064
106	0xbc42883a	-0.011873299
107	0x3d6079d4	0.054803684
108	0x3d0b239f	0.033969518
109	0x3cb3d607	0.021952642
110	0xbd8e6cf6	-0.069543764
111	0xbd8ce565	-0.06879691
112	0xbd682a63	-0.056681048
113	0xbc8643b8	-0.016389713
114	0xbd8c7ce4	-0.068597585
115	0x3b928676	0.0044715954
116	0x3d76c19c	0.060243234
117	0x36cfe3b0	6.195587e-06
118	0x3bda7e33	0.006667876
119	0xbd87f0aa	-0.066377
120	0xbd764f57	-0.060134258
121	0x3cfd4311	0.030915769
122	0x3d744c0e	0.059642844
123	0xbcfdb8b6	-0.030971866
124	0xbd7613db	-0.06007753
125	0xbcccf4b0	-0.02501902
126	0xbd7c58dd	-0.061608184
127	0x3cd2526b	0.025674066
128	0x3d8271c8	0.06369358
129	0x3d7d0ea0	0.061781526
130	0x3d894a2b	0.067035995
131	0x3d86793a	0.06566091
132	0xbd506b93	-0.05088384
133	0xbd08f055	-0.033432323
134	0x3d2a1f1b	0.04153357
135	0x3b80de90	0.0039327815
136	0xbc68fd19	-0.014220499
137	0x3d38aef9	0.045088742
138	0xbd3d926e	-0.046282224
139	0xbd29f541	-0.041493658
140	0x3ad611e9	0.0016332242
141	0x3d614528	0.054997593
142	0x3b7bd902	0.0038428907
143	0xbc6f4da6	-0.014605915
144	0x3d804799	0.06263656
145	0x3d857820	0.06517053
146	0xbd6570d4	-0.056015804
147	0xbc37be3b	-0.011214788
148	0xbd2b351b	-0.041798692
149	0xbd190c96	-0.03736552
150	0x3cc10676	0.023562651
151	0xbd82e799	-0.0639183
152	0xbcfec6d8	-0.031100675
153	0x3d0b536e	0.03401511
154	0xbc412104	-0.011787657
155	0x3d73a394	0.059482172
156	0x3d45af26	0.048262738
157	0x3bdca52d	0.0067335577
158	0xbcaae7cf	-0.020862488
159	0xbbf21192	-0.0073873485
160	0xbcd34a11	-0.025792154
161	0xbce0f409	-0.027460115
162	0xbb29aa09	-0.0025888702
163	0xbd6959a4	-0.056970254
164	0x3d45c7ff	0.048286434
165	0x3a98f86d	0.0011670716
166	0xbcbcd21f	-0.023049412
167	0xbd28d0e7	-0.04121485
168	0x3ccb787a	0.024837721
169	0xbd8b1a19	-0.06792087
170	0xbbe09279	-0.0068533984
171	0xbd451aaa	-0.048121132
172	0xbd0600b6	-0.03271552
173	0xbacb381c	-0.0015504393
174	0x3d88b2f7	0.0667476
175	0x3d0f4e83	0.034986984
176	0x3d043d74	0.03228517
177	0xbd204835	-0.039131362
178	0x3d7a6a39	0.061136458
179	0xbcb72e63	-0.022360986
180	0x3d6dc953	0.058053326
181	0x3d02ee33	0.031965446
182	0xbd1b32b7	-0.037890162
183	0xba03bd09	-0.0005025422
184	0xbd755805	-0.059898395
185	0x3d6a83ca	0.05725459
186	0x3d376ce1	0.04478157
187	0x3d53446f	0.051578935
188	0xbd8308a5	-0.06398133
189	0xbd22a65d	-0.039709438
190	0xbcadbba8	-0.021207646
191	0xbb110023	-0.0022125326
192	0x3cae6b13	0.021291291
193	0x3c921a8e	0.017834928
194	0x3ccdb1ff	0.02510929
195	0x3d19a299	0.03750858
196	0x3c98e926	0.018665861
197	0xbd06f3d8	-0.03294739
198	0x3ca032c8	0.019555464
199	0x3d157982	0.036492832
200	0x3d9ee6a1	0.07758833
201	0x3d950d4b	0.07277926
202	0x3e062d2c	0.13103169
203	0x3dea7c4b	0.11449488
204	0x3d2a984c	0.041649148
205	0xbb36a283	-0.002786786
206	0x3ca33137	0.019920928
207	0x3da99b3f	0.08281564
208	0x3c21b2e1	0.009869308
209	0x3de3b6f9	0.11118884
210	0xbcbaeb66	-0.022817325
211	0xbc45e65f	-0.0120788505
212	0xbc8435cb	-0.016138932
213	0x3d9d5782	0.076827064
214	0x3d93bf18	0.072141826
215	0x3d633638	0.05547163
216	0x3c28aeb4	0.010295559
217	0x3b34fdea	0.0027617165
218	0x3bbd3042	0.005773575
219	0xbd307747	-0.0430825
220	0x3d52e6b7	0.051489558
221	0xbd8737cb	-0.066024385
222	0xbcc00985	-0.02344204
223	0xbc83b3a3	-0.016076868
224	0x3d67573c	0.056479678
225	0xbdc47891	-0.09593309
226	0x3d95e630	0.073192954
227	0x3cb9af75	0.022666672
228	0x3d671b2b	0.056422394
229	0xbd078423	-0.033085
230	0xbd3b12a8	-0.04567209
231	0xbd97fbf7	-0.07421105
232	0xbd671595	-0.056417067
233	0xbda2d895	-0.07951466
234	0xbdc34861	-0.095352896
235	0xbce8192b	-0.028332314
236	0x3c775f80	0.015098453
237	0xbc9a8fa1	-0.018867316
238	0xbded3b26	-0.11583547
239	0xbd64e9b4	-0.05588694
240	0x3d6d6fac	0.057967827
241	0x3ce020f3	0.027359461
242	0xbdd0a0b7	-0.10186904
243	0xbe1fac57	-0.15593086
244	0xbd65473b	-0.055976134
245	0xbc6f2dc3	-0.014598313
246	0xbd8ae560	-0.06782031
247	0xbd96d642	-0.07365085
248	0xbdc4e9ef	-0.09614932
249	0xbd937534	-0.07200089
250	0x3b9b359d	0.004736616
251	0xbc605c31	-0.013693855
252	0x3da1fd2f	0.07909619
253	0x3cd40bc1	0.025884511
254	0xbc3a7503	-0.011380437
255	0x3c0876ee	0.008329136

conv1.bias f4 [32]
0	0xbcd0264a	-0.025408883
1	0xbe98dac4	-0.29854405
2	0xbdc436f9	-0.09580798
3	0x3e2077a5	0.15670641
4	0xbe017b7b	-0.1264476
5	0xbed5112e	-0.4161467
6	0xbe2631d0	-0.1622994
7	0xbc1f73fe	-0.009732245
8	0xbe34fcb6	-0.17674527
9	0xbe2d6e00	-0.16936493
10	0xbdfd7b0e	-0.123769864
11	0xbda40381	-0.08008481
12	0xbe7b68ac	-0.24551648
13	0xbd7fa5e7	-0.062414076
14	0x3d848a3b	0.06471678
15	0xbe3b43ca	-0.18287578
16	0xbdc0a624	-0.09406689
17	0xbe7c93d4	-0.24665767
18	0xbe8f54b8	-0.27994323
19	0xbe5c4f0e	-0.21514532
20	0xbe07dad4	-0.1326707
21	0x3c7856de	0.0151574295
22	0xbe9088bf	-0.2822933
23	0xbe904d83	-0.28184137
24	0xbd33f493	-0.043934416
25	0xbd42b514	-0.04753597
26	0xbeb10c16	-0.34579533
27	0xbd6c0ad1	-0.057627503
28	0xbda1a9cb	-0.078937136
29	0xbe414145	-0.18872555
30	0xbe5d972f	-0.21639703
31	0xbe595630	-0.21224284

conv2.weight f4 [32, 32, 5, 5]
0	0xbc8c9bb9	-0.017164098
1	0x3d2da013	0.042388987
2	0x3bcf7886	0.006331506
3	0xbc3a661c	-0.011376884
4	0xbc50dbfd	-0.012747762
5	0xbcde2c0c	-0.027120613
6	0xbcbe1b7b	-0.023206463
7	0xbcf7c6de	-0.030246194
8	0xbb9545c3	-0.0045554354
9	0xbcafa9e7	-0.02144332
10	0x3b03bece	0.0020102742
11	0x3c2806a7	0.010255492
12	0x3b9c8f4c	0.0047778245
13	0xbd3aeb7f	-0.045634743
14	0x3cbfb56d	0.02340194
15	0x3bff51ec	0.0077917483
16	0x3c640b0a	0.013918648
17	0xbcad9064	-0.021187015
18	0xbcf249ac	-0.029576145
19	0xbcd5d922	-0.026104514
20	0x3b8efc8b	0.0043636016
21	0xbd0ce8fc	-0.03440188
22	0xbc58b3c3	-0.013226452
23	0xbc732b16	-0.014841815
24	0x3ca965a8	0.020678356
25	0x3be3844a	0.0069432603
26	0xbcfeca85	-0.031102428
27	0xbc628dcb	-0.013827751
28	0x3d236fce	0.039901547
29	0xbcc21894	-0.02369336
30	0x3b96290d	0.0045825304
31	0x3d38cb79	0.04511592
32	0x3d4c1c5b	0.04983173
33	0x3c1b93fe	0.009495733
34	0x3bc464f7	0.0059934813
35	0x3cce4618	0.025179908
36	0x3cff401f	0.031158505
37	0x3d78c6f7	0.060736623
38	0x3c41c3f7	0.011826507
39	0xbcfed4aa	-0.031107266
40	0x3d0846a3	0.03327049
41	0xb7bb8c00	-2.235733e-05
42	0x3d132510	0.035924017
43	0x3cef4f33	0.02921257
44	0x3d0362bc	0.032076582
45	0x3c8b7db6	0.017027717
46	0x3cacd85e	0.021099266
47	0x3bfef013	0.007780084
48	0x3d6c4aff	0.05768871
49	0x3c37636f	0.01119314
50	0xbc78c298	-0.0151831135
51	0x3cc086e0	0.023501813
52	0x3c3f1dce	0.011664821
53	0x3c321676	0.010869613
54	0x3ca06e82	0.019583944
55	0x3d40dd5d	0.04708611
56	0x3dc9d4a7	0.09855013
57	0x3d60bfac	0.054870293
58	0x3d38f4b1	0.04515523
59	0x3d0d3b2d	0.034480263
60	0x3d7fe1e6	0.062471293
61	0x3d58f152	0.052964516
62	0x3d1f9aa1	0.038965825
63	0x3d103fbd	0.035217036
64	0x3ceb86cf	0.028750805
65	0xbc897d91	-0.016783508
66	0xbd52dca9	-0.05147997
67	0xbd0582aa	-0.032595314
68	0x3c7c45d0	0.015397504
69	0xbc860cfb	-0.016363611
70	0x3bcf776b	0.0063313744
71	0xbd404441	-0.046940092
72	0x3c7694f8	0.015050165
73	0xbd0d3a21	-0.034479264
74	0x3d2abe13	0.041685175
75	0xbd02c600	-0.03192711
76	0xbb02bd6e	-0.0019949335
77	0xbc74ad8c	-0.014933955
78	0xbcdb3785	-0.026759872
79	0x3c1c33b9	0.009533816
80	0x3ba2eda1	0.004972175
81	0x3bbeeed3	0.00582681
82	0xbd13c415	-0.03607567
83	0xbc1d1c27	-0.009589232
84	0xbcbaf4f2	-0.022821877
85	0xbd6488fa	-0.055794694
86	0xbd892e33	-0.06698265
87	0xbc463ded	-0.012099725
88	0xbd992dcb	-0.074794374
89	0xbbfff34f	-0.007810987
90	0xbd167463	-0.03673209
91	0xbd40681d	-0.04697429
92	0xbd605c47	-0.054775503
93	0xbd582b9c	-0.052775964
94	0xbd1b35cb	-0.037893098
95	0xbc884eef	-0.016639201
96	0xbd275f0c	-0.04086213
97	0xbd465822	-0.048423894
98	0xbd639fe9	-0.055572424
99	0xbd3f17c7	-0.046653535
100	0x3c117a73	0.008879292
101	0x3bf0f571	0.0073534776
102	0xbcb38cb1	-0.021917673
103	0xbb81f18f	-0.0039655636
104	0xba77db19	-0.00094549503
105	0xbd1b6f50	-0.037947953
106	0xbca8fd0a	-0.02062847
107	0x3c41e999	0.011835479
108	0x3c1540aa	0.009109655
109	0xbd4ee1ae	-0.050508194
110	0xbd0ccda0	-0.034375787
111	0xbd1d8644	-0.038458124
112	0xbc89d692	-0.016825948
113	0x3af483b3	0.0018654972
114	0xbd1103d2	-0.035404034
115	0x3cc77c08	0.024351135
116	0xbca4435d	-0.020051653
117	0xb9411725	-0.00018414536
118	0x3cfbe9f1	0.0307512
119	0xbbd65a5f	-0.006541535
120	0xbbfd9c83	-0.007739605
121	0xbc8b1c69	-0.01698132
122	0x3d38e03f	0.045135733
123	0x3d2ad70b	0.041708987
124	0xbc5633e2	-0.013073893
125	0x3b0ec1fb	0.0021783102
126	0xbd030e3a	-0.03199599
127	0xbc474561	-0.012162537
128	0x3d25b2a3	0.040453564
129	0x3c376163	0.011192652
130	0xbc7ddb51	-0.015494184
131	0xbc51f187	-0.012813932
132	0xba8f829b	-0.0010948958
133	0x3c931a37	0.017956836
134	0x3d2fefc0	0.042953253
135	0x3c778cd6	0.0151092615
136	0x3d332230	0.043733776
137	0x3cc4d9fe	0.024029728
138	0x3d787fe9	0.06066886
139	0x39235028	0.00015574752
140	0x3d048495	0.032353003
141	0x3d0d1f9e	0.03445398
142	0x3cbd7b28	0.023130015
143	0x3c0ecf47	0.008716411
144	0x3d2f507a	0.042801358
145	0x3c9f8080	0.019470453
146	0x3d2f9ee7	0.04287615
147	0x3ccf21d3	0.025284683
148	0x3c0ae9c0	0.008478582
149	0x3c3a319c	0.011364367
150	0xbc230f32	-0.009952353
151	0x3cb42b46	0.02199329
152	0x3d2dd3b2	0.042438217
153	0x3cd3ae80	0.025840044
154	0xbcb263f2	-0.021776173
155	0xbc4735ad	-0.012158793
156	0xbca0c59d	-0.01962548
157	0xbb486f91	-0.0030584077
158	0x3d3be139	0.045869086
159	0xbcbf88c3	-0.023380643
160	0xbcd0d41b	-0.025491765
161	0xbd121d32	-0.035672374
162	0x3cd9fb6f	0.02660915
163	0xbd0ff800	-0.03514862
164	0x3a991759	0.0011679932
165	0x3c7a5c34	0.015280772
166	0x3ccc81f7	0.024964316
167	0x3ca914df	0.020639835
168	0x3b89b028	0.0042019077
169	0x3c368771	0.01114069
170	0xbc8fcf3d	-0.017554874
171	0x3ccec3c9	0.025239842
172	0xbcfcaab3	-0.030843114
173	0x3a2aed15	0.00065203133
174	0xbba72d2b	-0.00510182
175	0x3d2453a5	0.040118832
176	0x3d3bb26c	0.045824453
177	0xbbdaa113	-0.0066720336
178	0x3cae54b1	0.021280618
179	0xbc982cdd	-0.01857608
180	0xbd018fbc	-0.031631216
181	0xbc876118	-0.01652579
182	0x3c3539a5	0.011061107
183	0xba6b88a1	-0.0008984898
184	0xbd13e2ef	-0.036105093
185	0xbca3ac10	-0.019979507
186	0xbc15571d	-0.009115008
187	0xbd89d5d7	-0.0673024
188	0xbca279d4	-0.019833483
189	0xbd48b502	-0.049000748
190	0xbada2665	-0.0016643523
191	0xbc6cfdee	-0.014464838
192	0x3bae1c8c	0.0053134616
193	0xbd21b334	-0.039477542
194	0x3c380c01	0.011233331
195	0xbd2b7008	-0.04185489
196	0xbd047c11	-0.03234488
197	0xbbe1d93b	-0.006892351
198	0xbbc7d881	-0.0060988073
199	0x3b82b600	0.0039889812
200	0xbd44d92b	-0.04805867
201	0xbd4a974a	-0.049460687
202	0xbd3ad147	-0.04560974
203	0xbd766f6c	-0.060164854
204	0x3c52473c	0.012834366
205	0xbd053be1	-0.032527808
206	0x3c614cb8	0.013751201
207	0xbd125be3	-0.03573216
208	0x3bf42b81	0.007451475
209	0x3b928fcd	0.004472709
210	0x3cdcd206	0.026955616
211	0x3d411e35	0.04714795
212	0x3d1f57cb	0.038902085
213	0x3c865f71	0.016402932
214	0x3d09fc27	0.033687737
215	0x3d57537e	0.05256986
216	0x3d16af90	0.036788523
217	0x3d990c1a	0.07473011
218	0x3da47d40	0.08031702
219	0x3d922b8a	0.07137211
220	0x3d28a5b1	0.04117364
221	0x3d6d9afc	0.058009133
222	0x3d476eee	0.048689775
223	0x3d24584b	0.040123265
224	0x3d8cc294	0.0687305
225	0xbc34d392	-0.01103677
226	0xbbadf4f5	-0.005308742
227	0x3cb00b88	0.021489874
228	0x3bb70eb4	0.0055864695
229	0x3cad88ec	0.021183454
230	0xbcb69a5b	-0.0222904
231	0xbd583d6b	-0.052792948
232	0xbba71919	-0.0050994274
233	0x3a361988	0.00069465535
234	0xbd012ff6	-0.03153988
235	0x3c151185	0.009098415
236	0x3ccd4d5a	0.025061298
237	0xbd363e4d	-0.04449301
238	0xbd5e1f51	-0.054229084
239	0xbd344b3f	-0.044017073
240	0x3cb5134d	0.02210393
241	0xbc85ef1e	-0.016349372
242	0x3c7ef56a	0.015561441
243	0xbc1633f7	-0.009167663
244	0xbb6eb6a1	-0.0036424773
245	0x3c56dd99	0.013114356
246	0xbd0d5cfb	-0.0345125
247	0xbb81d9d6	-0.0039627356
248	0xbd0c52ee	-0.034258775
249	0xbcf23213	-0.029564893
250	0x3bc1f237	0.005918767
251	0xbca423e3	-0.020036643
252	0x3b5c4e97	0.003361618
253	0xbcd2b94c	-0.025723122
254	0xba5eeecb	-0.0008504211
255	0x3c6c2045	0.0144119905

conv2.bias f4 [32]
0	0xbdd5c874	-0.10438624
1	0xbd14d6c7	-0.03633764
2	0xbd05c248	-0.032655984
3	0xbc5fffc8	-0.013671823
4	0xbc4f273a	-0.01264363
5	0xbd78f10b	-0.06077675
6	0xbc394f97	-0.01131048
7	0xbe360b6a	-0.17777792
8	0xbb8f2fd3	-0.0043697148
9	0xbdab4f44	-0.08364728
10	0xbda68b35	-0.081320204
11	0xbdd76cc0	-0.10518789
12	0xbd1038cf	-0.035210427
13	0xbdc0b651	-0.09409774
14	0xbd43ad1d	-0.047772516
15	0xbd264dbc	-0.040601477
16	0xbc44e716	-0.012017986
17	0x398b799e	0.00026602758
18	0xbc2bc1b3	-0.010483193
19	0xbcba698e	-0.02275541
20	0x3c277d5e	0.010222761
21	0xbd71cf15	-0.05903538
22	0xbd90ea4c	-0.070759386
23	0x3ce599af	0.028027384
24	0xbca1c095	-0.01974515
25	0xbdce538b	-0.10074528
26	0xbd56191c	-0.05227004
27	0xbd11bd6f	-0.03558105
28	0xbc6cc48c	-0.014451157
29	0x3c823c0a	0.01589777
30	0xbcbdc13d	-0.023163432
31	0xbc9c3127	-0.019066406

conv3.weight f4 [64, 32, 5, 5]
0	0x3d1f2666	0.03885498
1	0x3c8bb003	0.017051702
2	0x3c89fd3a	0.01684438
3	0xbb5b2682	-0.00334397
4	0xbcd8c78b	-0.026462337
5	0x3cfc41e1	0.030793132
6	0x3c857169	0.01628943
7	0xbbe5f4dd	-0.0070177154
8	0xbbd5067a	-0.006501016
9	0xbc0f907e	-0.008762477
10	0x3c4842ef	0.012222989
11	0x3cf195a0	0.029490292
12	0x3d02c367	0.03192463
13	0x3ce31813	0.02772144
14	0x3c6b9344	0.014378373
15	0xbc63e2c4	-0.013909046
16	0x3c8e2be9	0.017354922
17	0xbbd05e4c	-0.0063588973
18	0xbd55c1e1	-0.05218685
19	0x3c2ac761	0.010423512
20	0x3c755fbb	0.014976437
21	0xbd238170	-0.039918363
22	0xbd0fd91b	-0.035119157
23	0xbc4d3117	-0.012523911
24	0x3bd4d308	0.0064948834
25	0xbc53457c	-0.012894984
26	0xbc6155fe	-0.013753412
27	0xbbc068aa	-0.005871852
28	0x3c09215c	0.00836977
29	0xbcd61650	-0.026133686
30	0xbce1f348	-0.027581826
31	0x3cba1fc2	0.022720221
32	0x3c28793c	0.010282811
33	0xbd46926c	-0.048479483
34	0xbd2f70ca	-0.042832173
35	0x3aaeb954	0.0013330379
36	0xbc6ae122	-0.014335902
37	0x3c8577c6	0.016292464
38	0xbca82aa6	-0.020528149
39	0xbd0195a0	-0.031636834
40	0xbd17b09a	-0.037033655
41	0xbcba78d0	-0.022762686
42	0x3c06e3fc	0.008233067
43	0x3d22ac66	0.039715193
44	0x3d008f9b	0.031386953
45	0x3c721a94	0.0147768445
46	0xbcc42dfe	-0.023947712
47	0x3d2b97a4	0.041892663
48	0x3c337feb	0.010955791
49	0xbc431b2c	-0.011908334
50	0x3d0ab4c8	0.033863813
51	0x3cd88011	0.026428254
52	0x3c56d1a6	0.0131115075
53	0xbbaf28ee	-0.0053454554
54	0x3ce3039e	0.027711686
55	0x3cee8e73	0.02912066
56	0xbd042842	-0.032264955
57	0x3cbb87e8	0.022891954
58	0xbb819459	-0.003954452
59	0x3beebbe3	0.0072855814
60	0x3d0e875e	0.034797065
61	0x3bf7f8a4	0.007567482
62	0xbca121fc	-0.019669525
63	0x3c746023	0.014915499
64	0x3c4e2a0a	0.012583265
65	0xbd09e183	-0.03366233
66	0xbcca9cda	-0.024732996
67	0xbcbf481b	-0.023349812
68	0xbcd9be80	-0.026580095
69	0x3cfdcb7a	0.030980814
70	0x3c48745b	0.012234773
71	0x3c463cb1	0.012099431
72	0xba9df57f	-0.0012051313
73	0xbcebe2e7	-0.028794719
74	0xbc3b03b7	-0.01141446
75	0x3bb5cee5	0.0055483454
76	0x3cd32c9c	0.025778107
77	0x3c89a6e1	0.016803207
78	0xbc41d28a	-0.011829982
79	0xbc4ae462	-0.012383552
80	0xbc29feae	-0.010375662
81	0x3c994cff	0.018713472
82	0xbc1f59bd	-0.009725985
83	0xbd0069fc	-0.031351075
84	0x3c3964cb	0.011315535
85	0xbcc208c6	-0.023685824
86	0xbcc68bb0	-0.02423653
87	0x3c98a189	0.018631713
88	0xbcb3aeec	-0.021933995
89	0xbcdf4ab5	-0.027257303
90	0x3cbd76ba	0.023127902
91	0x3ca2d045	0.019874701
92	0xbcf67aa2	-0.030087773
93	0xbd2e6835	-0.04257985
94	0x3aed0102	0.0018081965
95	0x3cf42689	0.029803531
96	0x3cdd48f6	0.02701233
97	0xbcef2321	-0.029191555
98	0x3bea3c48	0.0071482994
99	0xbb994634	-0.0046775583
100	0x3bf2a970	0.0074054524
101	0xbb852d36	-0.0040642275
102	0x3d3f4b0c	0.04670243
103	0x3c493e56	0.012282928
104	0x3cf8c172	0.03036568
105	0x3c924e00	0.017859459
106	0x3d059d09	0.032620464
107	0xbae87a1c	-0.0017736587
108	0x3d363fb2	0.04449434
109	0xbc8cf3c4	-0.01720608
110	0xbcedd24e	-0.029030945
111	0x3cd8ae09	0.026450174
112	0x3c6275f4	0.0138220675
113	0xbcaaa8c3	-0.020832425
114	0x3cf23f4b	0.029571196
115	0xbc57044f	-0.013123586
116	0xbc27b039	-0.010234886
117	0xbd0a3e4c	-0.033750817
118	0xbcf7f800	-0.030269623
119	0xbc5d11dc	-0.013493028
120	0xbcdeab17	-0.027181191
121	0x3ce81af3	0.028333163
122	0xbd0e628a	-0.034761943
123	0xbcd9886a	-0.026554305
124	0x3c45f932	0.012083339
125	0xbad9dfda	-0.0016622499
126	0xbcb37e49	-0.021910803
127	0xbbffe8cf	-0.0078097354
128	0xb8c00948	-9.157002e-05
129	0xbcfa83bd	-0.030580396
130	0xbcc6d971	-0.024273606
131	0x3cb1f89e	0.021724995
132	0x3d0d78bc	0.03453897
133	0x3c9adb54	0.018903412
134	0xbd29338d	-0.04130893
135	0x3afbc4d6	0.0019208442
136	0x3d0a7988	0.033807307
137	0xbccaf1ca	-0.024773497
138	0x3d1b2dcd	0.037885476
139	0x3aa3267f	0.0012447386
140	0xbca5b34a	-0.020227093
141	0xbd1245c5	-0.03571107
142	0xbc967f46	-0.018371236
143	0xbcfd5b14	-0.030927218
144	0x3c138c23	0.009005579
145	0x3c870fe3	0.016487068
146	0xbd073929	-0.033013497
147	0x3bfc1ba2	0.007693724
148	0xba820f78	-0.0009922823
149	0xbba6237b	-0.0050701476
150	0x3d2395df	0.03993785
151	0xbbdda49b	-0.0067640073
152	0x3b8322e3	0.0040019616
153	0x3bedce0a	0.007257228
154	0x3cad20f6	0.021133881
155	0xbd0bce2c	-0.034132168
156	0x3cb53164	0.022118278
157	0x3c34f80c	0.011045467
158	0xbb1abc99	-0.0023610948
159	0xbb73d50c	-0.0037205843
160	0xbb14cac7	-0.0022703873
161	0x3c6b8db8	0.01437705
162	0xbcc1cf62	-0.023658458
163	0x3a1126e7	0.0005537108
164	0x3cb6012a	0.022217352
165	0xbc90eb12	-0.017690215
166	0x3ae19399	0.0017210125
167	0xbc997b38	-0.018735513
168	0xbca384bf	-0.01996076
169	0x3ca8d23c	0.02060806
170	0xbc8fbb4f	-0.01754537
171	0xbc983899	-0.018581675
172	0xbb451354	-0.0030071335
173	0x3d1b08dc	0.037850246
174	0x3d585ecf	0.05282479
175	0xbcd896b5	-0.02643905
176	0x39df4896	0.00042587955
177	0xbd32fc54	-0.04369767
178	0xbc0441d5	-0.008072336
179	0xbced2858	-0.028949901
180	0x3cccf9ba	0.025021423
181	0xbc3ccc05	-0.011523251
182	0xbcf6c298	-0.030122086
183	0x3a5cfb7b	0.00084298075
184	0x3cad3345	0.021142611
185	0x3c8ff464	0.01757259
186	0x3d3b5716	0.04573735
187	0x3bbde96f	0.0057956497
188	0xbc4ab23d	-0.012371597
189	0x3cd0f79f	0.0255087
190	0xbc04248d	-0.008065355
191	0xbb4d31fc	-0.003131031
192	0x3abbb946	0.0014322184
193	0x3c798764	0.015230034
194	0x3d0dcb36	0.034617625
195	0xbcd9fde7	-0.026610328
196	0xbd4f7d2b	-0.05065648
197	0xbc0cb8c8	-0.008588977
198	0x3a2263c2	0.00061946746
199	0x3d403769	0.046927843
200	0xbc7c0d1f	-0.015383988
201	0x3c8b7a5f	0.017026125
202	0x3be5b0bc	0.007009594
203	0x3ce215fe	0.027598377
204	0x3ccd015e	0.025025066
205	0xbca101a0	-0.019654095
206	0xbcf0ae68	-0.029380038
207	0x3ca5f7f2	0.020259831
208	0xbc87652d	-0.016527737
209	0x3ce2fc37	0.027708156
210	0xbd110675	-0.03540655
211	0x3c9e45fb	0.019320479
212	0xbd1ec31b	-0.038760286
213	0xbb79e182	-0.0038128798
214	0x3c4a1e78	0.012336366
215	0x3bca775f	0.006178781
216	0xbc423d8c	-0.011855494
217	0x3c8616c5	0.01636828
218	0xbb902ac2	-0.0043996284
219	0xbb68b20b	-0.0035506513
220	0xbb599136	-0.0033198125
221	0x3c8c2edc	0.017112188
222	0xbb169c58	-0.0022981372
223	0xbcdac274	-0.02670405
224	0x3d31cdce	0.04340916
225	0x3b53a65b	0.00322952
226	0x3b6bd610	0.0035985745
227	0xb9c11438	-0.00036826893
228	0xbcb964a9	-0.022631006
229	0xbd19e081	-0.03756762
230	0x3c984b7c	0.018590681
231	0xbcd6f348	-0.026239052
232	0x3cac5e4d	0.02104106
233	0x3cbfaa7d	0.023396725
234	0xbc6f8cb5	-0.0146209495
235	0xbcc01eca	-0.023452181
236	0x3c2e0f5c	0.010623779
237	0xbc1d0197	-0.009582899
238	0xbc73d112	-0.014881389
239	0xbcdb5271	-0.02677271
240	0xbd2b91cd	-0.041887093
241	0x3b0f071a	0.0021824301
242	0xbc2df856	-0.01061829
243	0x3baa91e0	0.005205378
244	0x3d0ef53c	0.034901842
245	0x3b02e4b4	0.0019972743
246	0x3ccd6535	0.025072673
247	0xbc00033a	-0.007813269
248	0xbbb6b2e2	-0.0055755237
249	0xbcce648b	-0.025194427
250	0xbd04de23	-0.03243841
251	0xbd02dda2	-0.031949647
252	0xbc033ed8	-0.008010589
253	0xbd3aa458	-0.045566887
254	0x3d16cee2	0.036818393
255	0xbca82518	-0.0205255

conv3.bias f4 [64]
0	0xbc8fc27a	-0.017548788
1	0x3ca207c7	0.0197791
2	0x3c6e0c04	0.014529232
3	0x3a7a9c87	0.00095600676
4	0x3cca6f42	0.024711255
5	0xbcf03a75	-0.02932475
6	0xbd49da7d	-0.049280632
7	0xbc48eee7	-0.01226399
8	0x3cbf843c	0.023378484
9	0x3cdf3b90	0.027250081
10	0x3c4444b6	0.011979273
11	0xbc54f0db	-0.012996878
12	0xbce1f480	-0.027582407
13	0xbcb1f15b	-0.021721533
14	0xbd39e014	-0.045379713
15	0x3c174529	0.009232798
16	0xbd503df6	-0.05084034
17	0xbb67639c	-0.0035307175
18	0x3c507b26	0.012724673
19	0x3d742f39	0.059615348
20	0x3c2b866b	0.010469059
21	0x3c4c8a2c	0.012484115
22	0xbc93294a	-0.017964024
23	0xbcabafb7	-0.02095781
24	0xbc63d3d7	-0.013905487
25	0xbc875a33	-0.016522503
26	0x3c0a11f7	0.008427135
27	0x3cd8c7e8	0.02646251
28	0x3c63d1e1	0.0139050195
29	0x3c718553	0.01474126
30	0xbc04366c	-0.008069616
31	0xbcff9500	-0.031198978
32	0xbd57d63f	-0.052694555
33	0xbc7e45f6	-0.01551961
34	0x3d80e44c	0.06293544
35	0x3d391d71	0.045194093
36	0x3d21feb0	0.03954953
37	0xbcea90ab	-0.028633436
38	0xbcc81f38	-0.024428949
39	0x3c3b8d50	0.011447266
40	0xba6691ae	-0.00087955117
41	0xbd3f0460	-0.04663503
42	0xbc52483c	-0.012834605
43	0x3d647654	0.05577691
44	0xba9b2b4a	-0.0011838463
45	0xbd2e6987	-0.042581107
46	0x3c42a52e	0.011880202
47	0x3be60604	0.00701976
48	0xbc1ea4a1	-0.009682805
49	0x3d3afaa0	0.04564917
50	0x3d02c579	0.031926606
51	0x3c12bcf9	0.008956187
52	0xbbf19425	-0.0073723965
53	0x3c92ce07	0.017920507
54	0x3cd4190b	0.025890848
55	0xbd59ab52	-0.0531419
56	0x3b6197e3	0.0034422807
57	0xbd08d13e	-0.033402674
58	0x3cbac897	0.022800727
59	0xbcdd5070	-0.027015895
60	0xbcc3e043	-0.023910647
61	0x3cf73527	0.030176712
62	0x3d66039a	0.05615578
63	0x3bda1f0c	0.006656533

fc.weight f4 [10, 1024]
0	0xbcd2ed7e	-0.02574801
1	0xbc49692b	-0.01229314
2	0x3d7551e3	0.059892546
3	0x3b73c0d5	0.0037193794
4	0x3d24d2d9	0.040240142
5	0x3d81c919	0.063371845
6	0x3cfda4b2	0.030962322
7	0xbcb18e6c	-0.021674357
8	0xbc949afe	-0.018140312
9	0x3ca5ca72	0.020238135
10	0xbd29f531	-0.0414936
11	0xbc5a2e3b	-0.013316686
12	0xbc0da070	-0.008644208
13	0xbd262a30	-0.040567577
14	0x3da256d0	0.079267144
15	0x3d8da5da	0.06916399
16	0xbcc6885c	-0.024234943
17	0xbc49b5c4	-0.012311403
18	0x3d224bdc	0.039623126
19	0xbc15fc32	-0.009154366
20	0x3c076ef3	0.008266198
21	0x3ac846ad	0.0015279852
22	0xb9953641	-0.00028459917
23	0xbcb4e35d	-0.022081072
24	0xbd7b4200	-0.06134224
25	0xbaa22c54	-0.001237283
26	0xbbc3fdf0	-0.0059811994
27	0xbdb938d7	-0.090440445
28	0xbc9db4e3	-0.019251293
29	0xbc749469	-0.014927962
30	0x3d63e205	0.05563547
31	0x3d14971a	0.036276914
32	0x3d0c950a	0.034321822
33	0x3db3f3e0	0.0878675
34	0x3c227c4d	0.009917331
35	0x3d721a53	0.059107136
36	0x3c162f28	0.009166516
37	0x3dafb86a	0.08580096
38	0x3c7e0973	0.015505183
39	0x3d889d74	0.06670657
40	0x3d247ff4	0.040161088
41	0xbb605b43	-0.0034234084
42	0x3e15c5c3	0.14626221
43	0x3ccaa464	0.02473659
44	0x3d22a7eb	0.03971092
45	0x3d67d275	0.05659719
46	0x3cf7c4c7	0.030245198
47	0xbadda1d1	-0.0016909187
48	0xbc975309	-0.018472211
49	0x3d2999e9	0.041406546
50	0xbd040a76	-0.03223654
51	0xbca1822d	-0.019715393
52	0xbba0bf1c	-0.0049055945
53	0xbca7df1e	-0.020492133
54	0xbcbcc230	-0.023041815
55	0x3d1cedb4	0.03831263
56	0x3d2bce28	0.041944653
57	0x3ca1e296	0.019761365
58	0x3e0b9a57	0.13633095
59	0x3d0282ca	0.03186301
60	0x3cda732e	0.02666625
61	0xbc8a236d	-0.016862595
62	0x3c49f787	0.0123270815
63	0x3cb55468	0.022134975
64	0xbbc062dd	-0.0058711604
65	0xbbeb380e	-0.007178313
66	0x3d5d01c1	0.05395675
67	0xbd0d2e4d	-0.034467984
68	0x3bbf6b5d	0.005841656
69	0x3a694dd4	0.0008899842
70	0x3ba0b1f8	0.004904028
71	0xbcd2fc01	-0.02575493
72	0x3cb92973	0.022602772
73	0xbca7ce77	-0.020484192
74	0xbb136a60	-0.0022493824
75	0xbb598871	-0.0033192898
76	0xbc837f33	-0.016051864
77	0xbcd394fa	-0.025827873
78	0xbd4cae78	-0.049971074
79	0xbd037d8c	-0.032102153
80	0xbd123d22	-0.035702832
81	0xbd47b3e0	-0.048755527
82	0xbd8af2d0	-0.06784594
83	0x3cdfcc98	0.027319238
84	0xbb9cf987	-0.004790488
85	0x3aa19948	0.0012329007
86	0x3d84c968	0.06483728
87	0x3d939dcd	0.072078325
88	0xbd014ef3	-0.031569432
89	0xbda49ffa	-0.080383256
90	0xbbfe0b62	-0.007752822
91	0xbdacb2d1	-0.08432544
92	0xbd1ea9c5	-0.038736124
93	0xbc278fe7	-0.01022718
94	0x3d103fde	0.03521716
95	0x3d2e858e	0.042607836
96	0x3c9fac64	0.019491382
97	0x3cf5768f	0.02996376
98	0xbb0f4ab2	-0.002186459
99	0x3cdaf2dc	0.026727132
100	0x3b8ffab5	0.0043939003
101	0xbc929902	-0.017895225
102	0xbd69f56b	-0.057118814
103	0x3c8ff1d6	0.017571371
104	0xba217881	-0.0006159619
105	0xb974b7b7	-0.00023338092
106	0x3ca2aedc	0.01985877
107	0xbbf8908a	-0.00758559
108	0xbd329d27	-0.043606903
109	0x3c37dc2d	0.011221928
110	0x3d807184	0.062716514
111	0xbd86b37d	-0.065772034
112	0x3c88e054	0.01670853
113	0x3cf5e35b	0.030015638
114	0x3c5a65e4	0.013329957
115	0x3d2f73f6	0.0428352
116	0x3cac2f6d	0.021018708
117	0x3c3d177d	0.011541245
118	0x3d31a3f6	0.043369256
119	0x3c3ef71f	0.011655598
120	0x3d578576	0.052617513
121	0x3cd107f1	0.025516482
122	0xbab356e9	-0.0013682517
123	0x3cc499ba	0.023999084
124	0xbc7c7a08	-0.015409954
125	0xbd1afd01	-0.03783894
126	0xbcbc3c52	-0.022977982
127	0x3d1d6653	0.038427662
128	0x3cf2fa73	0.02966044
129	0x3d97fd0d	0.074213125
130	0x3d217f0e	0.03942781
131	0xbc1161c8	-0.0088734105
132	0xbcc374cd	-0.023859406
133	0xbcaf00e8	-0.021362737
134	0xbd68db17	-0.056849565
135	0x3db5cd82	0.08877088
136	0x3ca1b04b	0.019737383
137	0x3bbb4ce9	0.0057159555
138	0x3da7af8d	0.081877805
139	0x3d909e0a	0.070613936
140	0x3d0dcf74	0.03462167
141	0x3d53b31f	0.051684495
142	0xbc8d657a	-0.017260302
143	0xbd76c284	-0.0602441
144	0x3cb0504c	0.021522664
145	0xbc495dd7	-0.01229044
146	0xbd1012d7	-0.035174217
147	0x3c674a8c	0.014116894
148	0xbd38a443	-0.045078527
149	0x3a6c85c4	0.0009022618
150	0xbd6e04b9	-0.058109973
151	0xbc817ab5	-0.015805582
152	0xbd6b3b94	-0.057429865
153	0x3d29882b	0.041389626
154	0x3d40df89	0.04708818
155	0xbd1da961	-0.03849161
156	0xbd94623f	-0.072453015
157	0xbdcbfa74	-0.099598795
158	0xbc9d7282	-0.01921964
159	0xbc8686dd	-0.01642173
160	0xbc00bf8f	-0.007858171
161	0x3d5d46ea	0.054022707
162	0x3cb1f7a6	0.021724533
163	0xbc995f3d	-0.018722171
164	0xbc9081b4	-0.017639972
165	0x3d1da107	0.038483646
166	0x3d7a79d4	0.06115134
167	0x3d600bb2	0.054698654
168	0xbc0daad4	-0.008646686
169	0xbcdb0f85	-0.026740799
170	0x3ac21a0b	0.0014808787
171	0x3d21d6e7	0.039511587
172	0xbdb2c1f7	-0.08728402
173	0x3c102dd8	0.0087999925
174	0xbd511917	-0.05104932
175	0xbd4c01a0	-0.049806237
176	0x3ba7e830	0.0051241145
177	0xbcb82b02	-0.022481445
178	0xbdb15e68	-0.08660585
179	0x3c365e6b	0.011130909
180	0x3c812f11	0.015769513
181	0xbbec72b1	-0.0072158207
182	0x3c0df463	0.008664223
183	0x3d84fdb2	0.06493701
184	0xbd07e88c	-0.03318076
185	0x3d12ea95	0.035868246
186	0x3cdc27e0	0.026874483
187	0xbd96ee37	-0.073696546
188	0xbb6e79bf	-0.0036388484
189	0xbd812d5f	-0.06307482
190	0xbcaf6cdf	-0.021414218
191	0xbd4381a6	-0.047731064
192	0x3caf113e	0.021370526
193	0xbcc1dba6	-0.023664307
194	0xbb55b0b2	-0.003260654
195	0xbcfcebb5	-0.030874113
196	0x3d66cdb1	0.056348506
197	0x3bba744b	0.0056901327
198	0x3c8b5a46	0.01701082
199	0x3d65ce1a	0.056104757
200	0xbbccf20f	-0.0062544416
201	0xbc45b51e	-0.0120671075
202	0x3d8b4d0e	0.068018064
203	0x3dc0ab31	0.09407652
204	0xbc6f6971	-0.0146125415
205	0xbc689e15	-0.014197846
206	0x3ce7e5a0	0.028307736
207	0xbc895718	-0.016765162
208	0xbb9f8204	-0.004867794
209	0x3ba13a7e	0.004920303
210	0x3d9d1b49	0.0767122
211	0xbc372b90	-0.01117982
212	0x3d23f756	0.0400308
213	0xbd6262df	-0.055270072
214	0xbd9df873	-0.077134036
215	0xbd4c7cb8	-0.04992363
216	0x3d857220	0.06515908
217	0x3d28e960	0.04123819
218	0x3d89d0d4	0.06729284
219	0x3cf6d390	0.030130178
220	0x3b87a05e	0.0041389903
221	0x3d58a385	0.05289032
222	0x3d0bb6d5	0.03410991
223	0x3c024d53	0.007953006
224	0xbd3e6146	-0.046479486
225	0xbd2dcb71	-0.042430345
226	0xbd873d68	-0.06603509
227	0xbd214ebc	-0.039381728
228	0xbc9b02dc	-0.018922262
229	0x3c5778f0	0.013151392
230	0xbcdcab66	-0.026937198
231	0xbc5ee1c2	-0.01360363
232	0xbd4ba0ca	-0.049713887
233	0x3cceef96	0.025260728
234	0x3d64ed0b	0.055890124
235	0xbd86f193	-0.065890454
236	0x3d3a55e8	0.045492083
237	0x3c9f1a89	0.019421833
238	0x3c116b14	0.008875627
239	0x3d2b39a4	0.041803017
240	0xbd403124	-0.046921864
241	0xbd7773f5	-0.06041332
242	0xbaec964a	-0.0018050161
243	0xbc946f6b	-0.018119534
244	0x3d0b026e	0.033937864
245	0x3b4ad6b4	0.0030950727
246	0xbc744aa1	-0.014910371
247	0x3c5d83e2	0.013520213
248	0xbd5b6d9c	-0.05357133
249	0x3d890f61	0.066923864
250	0xbbba1259	-0.0056784567
251	0xbca3da8a	-0.020001668
252	0xbd077f48	-0.03308037
253	0xbcfb1a95	-0.030652324
254	0xbd15e371	-0.03659386
255	0xbc5b2d43	-0.01337749

fc.bias f4 [10]
0	0xbc9daff6	-0.019248944
1	0xbcd3d4cb	-0.025858304
2	0x3cd40bba	0.025884498
3	0x3dd1cb05	0.10243801
4	0x3c69d9a8	0.014273085
5	0x3ce22fa2	0.027610604
6	0x3d0ea491	0.03482491
7	0xbd1efe6d	-0.038816858
8	0x3d5dfe15	0.05419739
9	0xbdddcdce	-0.1083027
