examples/nxp/experimental/cifar_net/cifar_net.pth (torch, 361496 bytes, 8 tensors)

conv1.weight f4 [32, 3, 5, 5]
0	0xbdd556f5	-0.10416976
1	0xbe25f8fd	-0.16208263
2	0x3e3b1372	0.18269137
3	0xbb92c517	-0.0044790613
4	0x3c6955df	0.014241665
5	0xbe106eb7	-0.14104734
6	0xbdfd9fd2	-0.12383999
7	0x3e392659	0.18081035
8	0xbd80fef9	-0.06298632
9	0x3d505bef	0.050868925
10	0xbe4e1fee	-0.20129368
11	0x3d9aaa07	0.075519614
12	0x3e6a4d05	0.22880943
13	0xbd71023a	-0.058840014
14	0x3da442c7	0.08020549
15	0xbe785264	-0.2425018
16	0x3cf17862	0.029476348
17	0x3e693a31	0.22776105
18	0xbe7e9671	-0.24862076
19	0x3dfc7ba3	0.12328269
20	0xbdc93986	-0.09825425
21	0x3e33e80a	0.17568985
22	0x3cec3e08	0.028838173
23	0xbe142867	-0.14468537
24	0x3d6715e6	0.05641737
25	0xbdd0c401	-0.10193635
26	0x3d494c08	0.049144775
27	0x3e1af0d7	0.15130936
28	0xbdf8d8d5	-0.121507324
29	0x3c170324	0.009217057
30	0xbe599c4b	-0.21251027
31	0x3d1f063c	0.038824305
32	0x3e9617a1	0.29314902
33	0xbe2b9232	-0.16754988
34	0xbce17cce	-0.027525332
35	0xbea61753	-0.3243967
36	0x3e2a09c9	0.16605295
37	0x3e8b531e	0.2721185
38	0xbe18df01	-0.14928819
39	0xbd8eb8a7	-0.069688134
40	0xbd9f59a5	-0.0778077
41	0x3e2e9887	0.17050372
42	0x3e9084d8	0.28226352
43	0xbd99230b	-0.07477387
44	0x3e2542a8	0.16138709
45	0xbe106945	-0.14102657
46	0x3e131218	0.14362371
47	0x3e62873b	0.22121899
48	0xbb1c8ee3	-0.0023888878
49	0x3db4ee60	0.08834529
50	0xbe24d312	-0.16096142
51	0x3d8a8c3a	0.06765027
52	0x3e10872d	0.14114065
53	0x3c85a235	0.016312698
54	0xbc600f66	-0.013675546
55	0xbe62e1f5	-0.22156508
56	0x3d7c7c57	0.061642017
57	0x3db24621	0.08704782
58	0xbdbb01a4	-0.09131172
59	0xbca3e757	-0.020007772
60	0xbea0d853	-0.31415042
61	0x3dcfd338	0.10147709
62	0x3d8e5183	0.06949141
63	0xbe72861f	-0.23683976
64	0x3da0b1fb	0.07846447
65	0xbe7ed03f	-0.24884127
66	0x3e169cd7	0.14708267
67	0x3ded8ffe	0.1159973
68	0xbe81f15c	-0.25379455
69	0x3c6470eb	0.013942937
70	0xba0d58e8	-0.0005391971
71	0x3df95899	0.12175102
72	0x3d046781	0.03232527
73	0xbd233d86	-0.039853595
74	0xbcf126e3	-0.029437488
75	0x3d1ce214	0.038301542
76	0xba437a74	-0.00074569066
77	0x3e738474	0.23780996
78	0xbd150e62	-0.03639067
79	0x3d1a65c2	0.0376947
80	0xbc88f6eb	-0.016719302
81	0xbdaa13f4	-0.08304587
82	0x3e38678b	0.18008249
83	0x3e5d3ed3	0.21605997
84	0x3e4487ad	0.19192381
85	0x3e0300b4	0.12793237
86	0xbe094799	-0.13406219
87	0x3d0f1b8c	0.03493838
88	0x3e7e6d79	0.24846448
89	0x3e7590a5	0.23980959
90	0x3e1150f9	0.14191045
91	0xbcab1628	-0.020884588
92	0xbe14e5e8	-0.14540827
93	0x3e282a13	0.164223
94	0x3e93755a	0.2880047
95	0x3d2560ce	0.040375523
96	0x3d769bb9	0.060207102
97	0xbe412094	-0.18860084
98	0xbdd10767	-0.1020649
99	0xbd07ef3c	-0.033187136
100	0xbe059dca	-0.13048473
101	0xbcdc9a58	-0.026929066
102	0x3df21067	0.11819535
103	0x3d334718	0.043768972
104	0x3da484bd	0.0803313
105	0xbe60ebcf	-0.21964954
106	0xbe77c6e4	-0.24196965
107	0x3ccc4477	0.02493499
108	0x3e06fe7e	0.13183019
109	0x3e0fd92d	0.1404769
110	0xbd89aff9	-0.06723017
111	0xbe86b120	-0.2630701
112	0xbe65b07a	-0.22430602
113	0x3d8dc737	0.06922763
114	0x3e63c27a	0.22242156
115	0xbcca7658	-0.024714634
116	0xbe84e62b	-0.25956854
117	0xbe993c18	-0.2992866
118	0x3da287d8	0.079360664
119	0x3dd7d1e7	0.105380826
120	0x3e1ecd22	0.1550794
121	0x3d65d794	0.056113794
122	0xbe8e13be	-0.27749437
123	0x3ca08d2f	0.019598572
124	0x3e11850a	0.14210907
125	0xbe46d1ba	-0.19415942
126	0xbcb0c9d3	-0.021580612
127	0xbbaa79d7	-0.0052025127
128	0x3db8fa4d	0.09032116
129	0xbde9419e	-0.113894686
130	0xbe0b73bc	-0.13618368
131	0xbdf54f26	-0.11977987
132	0xbdaaf234	-0.08346978
133	0x3dc85747	0.09782272
134	0x3cd23c6e	0.02566358
135	0xbd93d270	-0.07217872
136	0xbea362c3	-0.31911287
137	0xbe26da6a	-0.16294256
138	0x3e37b8c8	0.17941582
139	0x3e0062a6	0.12537631
140	0x3e2d232d	0.1690795
141	0xbd39939e	-0.045306794
142	0xbe961466	-0.29312438
143	0xbd4d78a0	-0.050163865
144	0x3db6805c	0.08911201
145	0x3e8419c5	0.2580091
146	0xbce84124	-0.028351374
147	0xbd2cdbcc	-0.042201802
148	0x3dd21cee	0.10259424
149	0x3e37aece	0.17937776
150	0xbd93d648	-0.07218605
151	0x3c81cf28	0.01584585
152	0xbc5687e8	-0.013093926
153	0x3dc4d9d0	0.09611857
154	0x3d25bb11	0.040461604
155	0x3e01219f	0.12610482
156	0x3e36353d	0.17793746
157	0x3cf63a8b	0.030057212
158	0xbdefbff7	-0.11706536
159	0xbc6505f3	-0.013978469
160	0x3e35398a	0.1769773
161	0x3ca9d7df	0.020732818
162	0xbd5edab4	-0.05440779
163	0xbe493fb7	-0.19653212
164	0xbe187563	-0.1488853
165	0x3dfb624c	0.12274608
166	0xbcb99e08	-0.022658363
167	0x3c8f52e1	0.017495574
168	0xbe080e41	-0.13286687
169	0xbd9fa9d1	-0.07796062
170	0x3dff8b8e	0.1247779
171	0xbc68e673	-0.0142151
172	0xbddadf75	-0.10687152
173	0xbbb8ad2e	-0.005635879
174	0xbe15b6c7	-0.14620505
175	0x3e18f854	0.1493848
176	0x3e3597db	0.1773371
177	0x3ce540ad	0.027984941
178	0xbd62fd8e	-0.05541759
179	0xbddd2e5a	-0.107998565
180	0x3e25dbe9	0.1619717
181	0x3c0194e4	0.007909033
182	0x3b6ba8be	0.0035958732
183	0xbe3911bc	-0.18073171
184	0xbe919941	-0.28437236
185	0x3e3e3839	0.18576135
186	0x3e179ada	0.14805165
187	0x3d96ff89	0.07372958
188	0xbe0aa1eb	-0.1353833
189	0xbe986016	-0.29760808
190	0x3e81d637	0.25358745
191	0x3e5d1035	0.21588214
192	0xbdf06724	-0.117384225
193	0xbe6b62af	-0.22986864
194	0xbe7708f8	-0.24124515
195	0x3c971e23	0.018446987
196	0x3e0cfaad	0.137675
197	0x3b1bfad8	0.0023800638
198	0xbc6ac852	-0.014329987
199	0xbe08613c	-0.13318342
200	0x3da19bbc	0.07891032
201	0x3dd6ac8c	0.104821295
202	0xbe1bdf46	-0.15221891
203	0xbe52d63c	-0.20589536
204	0xbe75cafd	-0.24003215
205	0x3e876cac	0.26450098
206	0x3e3a7a91	0.18210818
207	0xbd2baded	-0.041913915
208	0xbe10bb38	-0.14133918
209	0xbeb014ea	-0.34390956
210	0x3eda1760	0.4259596
211	0x3e44a07e	0.19201848
212	0x3d64ed7e	0.055890553
213	0xbe743761	-0.2384925
214	0xbe65977a	-0.22421065
215	0x3e728b43	0.23685937
216	0x3e52ef01	0.20598985
217	0x3dff647c	0.12470338
218	0xbd8ed9ae	-0.06975113
219	0xbdb256ae	-0.08707939
220	0x3e52b60e	0.20577261
221	0x3d9c0309	0.076177664
222	0x3c05acbf	0.008158862
223	0xbd099722	-0.033591397
224	0xbd88dfb5	-0.06683294
225	0xbda790b3	-0.08181896
226	0x3dfc2dd7	0.12313431
227	0xbe835551	-0.2565103
228	0xbe18b9e5	-0.14914663
229	0xbdfc461f	-0.12318062
230	0x3ca302b4	0.01989875
231	0x3eb24e80	0.34825516
232	0xbe0fac41	-0.14030553
233	0x3e2079fb	0.15671532
234	0x3e020e49	0.12700762
235	0x3d554059	0.05206332
236	0x3e965a39	0.2936571
237	0xbe18557a	-0.14876357
238	0x3d9cd8fe	0.076585755
239	0x3cd950ae	0.026527729
240	0xbc792073	-0.01520549
241	0x3e73d2b1	0.23810841
242	0xbe853fce	-0.26025242
243	0xbda7fb4a	-0.082022265
244	0xbcc00f18	-0.023444697
245	0xbcb17bdf	-0.021665512
246	0x3e5f75c0	0.21822262
247	0xbe8b3381	-0.27187732
248	0x3ab6154a	0.0013891843
249	0xbd5f3f07	-0.054503467
250	0xbdbf8145	-0.09350828
251	0x3d2bd211	0.04194838
252	0xbe930402	-0.28713995
253	0xbd59ca07	-0.053171184
254	0x3dbbef47	0.09176498
255	0x3d91c0ae	0.07116829

conv1.bias f4 [32]
0	0xbe86da3c	-0.26338375
1	0xbf0b9bf9	-0.5453487
2	0xbf113c43	-0.5673258
3	0xbe740f28	-0.23833907
4	0xbea777a8	-0.32708478
5	0xbe89753c	-0.26847255
6	0x3bfcf585	0.007719698
7	0xbcb5539a	-0.02213459
8	0xbd84f821	-0.06492639
9	0xbdd43fcc	-0.10363731
10	0xbe067938	-0.13132179
11	0xbecac5d5	-0.3960406
12	0xbe466b5b	-0.1937689
13	0xbe36f834	-0.1786812
14	0xbee9e0f9	-0.45679453
15	0xbe321812	-0.17391995
16	0xbf10e2f5	-0.5659631
17	0xbe9d7403	-0.30752572
18	0xbe747fa8	-0.23876822
19	0x3cf4c69b	0.029879859
20	0xbe8df34b	-0.2772468
21	0xbeb201cf	-0.34767005
22	0xbe44e1d1	-0.19226767
23	0xbe630c40	-0.22172642
24	0xbe057c2c	-0.13035649
25	0xbea3a57b	-0.3196219
26	0x3e0a7361	0.13520576
27	0xbe259000	-0.16168213
28	0x3cb442ef	0.022004573
29	0xbe41f1ff	-0.1893997
30	0x3cb5d206	0.022194874
31	0xbe312bbb	-0.17301838

conv2.weight f4 [32, 32, 5, 5]
0	0xbd129685	-0.035788078
1	0xbce7b614	-0.028285064
2	0xbc4d7ce1	-0.0125419805
3	0xbcf5cf0d	-0.030005956
4	0xbd81f0ef	-0.063447826
5	0xbd872d44	-0.066004306
6	0xbd2f648b	-0.042820495
7	0xbb7101f6	-0.003677485
8	0x3c283914	0.010267515
9	0xbd838805	-0.06422428
10	0xbd471d94	-0.048612192
11	0xbcf7f670	-0.030268878
12	0x3d204bbd	0.03913473
13	0x3c12e446	0.008965557
14	0xbc028680	-0.007966638
15	0xbc03252d	-0.008004469
16	0x3ca029fb	0.019551268
17	0x3dc62fe0	0.096771
18	0x3d9aa662	0.07551266
19	0xbca6f311	-0.020379575
20	0x3c0214f8	0.00793957
21	0x3cb32018	0.02186589
22	0x3daf8c8c	0.08571729
23	0x3d805970	0.06267059
24	0xbd1f668f	-0.038916167
25	0xbd3cea1b	-0.046121698
26	0x3d5b5abc	0.053553328
27	0x3d2d493d	0.042306174
28	0xbc9d95a0	-0.019236386
29	0xbd62ed86	-0.0554023
30	0xbda379a5	-0.07982186
31	0x3c10ab93	0.008829969
32	0xbd0d507e	-0.03450059
33	0xbdd69e29	-0.104793854
34	0xbd7140d8	-0.05889973
35	0xbb8e1e58	-0.0043371134
36	0x3c39b6f7	0.011335126
37	0xbc5856a2	-0.013204249
38	0xbdadbbe8	-0.08483106
39	0xbda0c52b	-0.07850107
40	0x3cd21116	0.025642913
41	0x3d947074	0.07248011
42	0x3d976d1c	0.07393858
43	0xbd2683d0	-0.04065305
44	0xbcf30e3c	-0.029669873
45	0xbb711cd2	-0.003679086
46	0x3c794bd1	0.01521583
47	0x3cb5be88	0.022185579
48	0xbd4d2458	-0.05008349
49	0xbc9ff1c8	-0.01952447
50	0xbb67c7d1	-0.0035366903
51	0xbc9e80b6	-0.019348484
52	0xbd660077	-0.056152787
53	0xbc498789	-0.0123003805
54	0x3d369ff6	0.044586144
55	0x3d2bfd20	0.041989446
56	0x3bbb34ef	0.0057130973
57	0xbd478593	-0.04871137
58	0x3a9303be	0.0011216325
59	0x3c0f57eb	0.008748989
60	0x3d908312	0.0705625
61	0x3ccdba84	0.025113352
62	0xbda59b29	-0.08086235
63	0x3ce148a3	0.027500456
64	0x3ce761f3	0.028244948
65	0x3d1cf84d	0.038322736
66	0xba943216	-0.0011306431
67	0xbd1d6e53	-0.03843529
68	0x3c983b42	0.018582944
69	0x3cbd256e	0.023089137
70	0x3cb5cfd6	0.02219383
71	0xbc144a87	-0.009050972
72	0xbcd3d10c	-0.025856517
73	0xbbb31aa2	-0.0054658214
74	0x3d96e74d	0.07368336
75	0xbd012df3	-0.03153796
76	0xbcaf408b	-0.021393081
77	0x3a2349cd	0.0006228954
78	0x3a80b655	0.0009819964
79	0xbd8bf619	-0.06834049
80	0xbcbc8eed	-0.023017371
81	0xbcbb57c3	-0.022868996
82	0xbd321469	-0.043476496
83	0xbd51636e	-0.051120214
84	0xbd28df2d	-0.041228462
85	0xbc8a12d3	-0.01685468
86	0x3ce03092	0.02736691
87	0x3bfdc66b	0.0077446005
88	0x3cd1d0ce	0.025612261
89	0xbc3a6041	-0.011375488
90	0x3c1c7e97	0.009551666
91	0x3c9e5f46	0.01933254
92	0xbb0b6b8b	-0.0021273817
93	0x3cc5edba	0.024161208
94	0x3ccb4de9	0.024817424
95	0xbc58c833	-0.013231325
96	0x3d5c8ee7	0.05384722
97	0x3d4d0e71	0.0500626
98	0x3d02ce15	0.031934816
99	0x3b880345	0.0041507804
100	0xbc37bdf0	-0.011214718
101	0xbce85503	-0.02836085
102	0xbd25ac88	-0.04044774
103	0x3ba0b42a	0.0049042897
104	0xbd1c305a	-0.03813205
105	0x3cded1f8	0.02719973
106	0xbc4e7096	-0.012600085
107	0xbc3c0756	-0.011476358
108	0xbc4f4745	-0.012651269
109	0x3a4b6108	0.0007758294
110	0xbc78b8c9	-0.015180775
111	0xbd0a7028	-0.033798367
112	0xbd15611e	-0.03646957
113	0xbda6b215	-0.08139435
114	0xbc4e5e93	-0.01259579
115	0xbced2ad1	-0.02895108
116	0xbd92f7c7	-0.07176166
117	0xbd5b1183	-0.053483497
118	0xbd802dc9	-0.06258733
119	0xbc9022e3	-0.01759476
120	0xbc29fcda	-0.010375226
121	0xbb7995a1	-0.003808357
122	0xbb1a8e1f	-0.0023583246
123	0xbd407fdf	-0.046996947
124	0xbcab4aa7	-0.02090962
125	0xbc8c6e98	-0.017142579
126	0xbd34a273	-0.044100236
127	0xbd6a5b0b	-0.05721573
128	0xbcfa6e4c	-0.030570172
129	0xbd5a6746	-0.053321145
130	0xbd47ec5d	-0.048809398
131	0xbd0787b1	-0.03308839
132	0xbc429798	-0.011876963
133	0xbd2f7a63	-0.042841326
134	0xbd738438	-0.059452266
135	0xbd065c8c	-0.032803103
136	0xbd015f0c	-0.031584784
137	0x3ce09032	0.027412508
138	0xbd151d3a	-0.036404826
139	0xbd9a9b10	-0.07549107
140	0x3bf3b59e	0.007437422
141	0x3d7256d2	0.05916483
142	0x3d5ebf31	0.054381553
143	0xbbacc9da	-0.005273086
144	0x3b71c50d	0.0036891133
145	0x3cb0113f	0.021492599
146	0x3d0ce7e6	0.034400843
147	0x3d4f5e36	0.050626956
148	0x3ccef14e	0.025261547
149	0xbce83810	-0.028347045
150	0x3c5b79e0	0.0133957565
151	0x3ccc18fc	0.024914257
152	0xbd120784	-0.0356517
153	0xbcaf6a6b	-0.021413049
154	0xbae5ede6	-0.0017542213
155	0xbca054d2	-0.019571695
156	0xbd05e10a	-0.032685317
157	0xbcd51c34	-0.026014425
158	0xbb871181	-0.0041219597
159	0xbc629983	-0.013830545
160	0xbba3ef8f	-0.005002923
161	0xbcfa4d47	-0.030554427
162	0xbd232061	-0.0398258
163	0xbce6512f	-0.028114883
164	0x3b4f74ce	0.0031655314
165	0xbc5af270	-0.013363466
166	0x3c8b2979	0.01698755
167	0x3cec57f0	0.028850526
168	0xbc5aa617	-0.013345263
169	0x3c36f91d	0.011167792
170	0xbc9f0b5d	-0.019414598
171	0x3bbb193d	0.0057097957
172	0xbd03214f	-0.032014187
173	0xbcfad7fe	-0.030620571
174	0xbd052151	-0.032502476
175	0xbd191c2e	-0.03738039
176	0xbcec4978	-0.028843626
177	0xbd10cf28	-0.03535381
178	0xbcd2bec9	-0.02572574
179	0x3c8f634f	0.017503409
180	0x3c809ca0	0.015699685
181	0x3c83758d	0.016047264
182	0x3bef1bce	0.0072970157
183	0xbab9eb1f	-0.0014184451
184	0x3a7fa235	0.0009751649
185	0xbcf7efd9	-0.030265735
186	0xbc4346c4	-0.011918727
187	0xbcaa0c44	-0.020757802
188	0x3a96ecb5	0.0011514636
189	0x3cbe35f5	0.023219088
190	0xbd30f1e2	-0.043199427
191	0xbdccbe5a	-0.09997244
192	0xbd95fb46	-0.07323317
193	0xbc40be15	-0.011764069
194	0x3b802ff9	0.003911969
195	0x3c45cbb7	0.012072495
196	0xbd3599ff	-0.044336315
197	0xbb0a3a35	-0.0021091823
198	0xbc08c5e5	-0.008347963
199	0xbc9d19d5	-0.019177357
200	0xbcb985ca	-0.022646803
201	0x3a7f564d	0.0009740338
202	0xbd011c35	-0.03152104
203	0xbd6663d3	-0.056247544
204	0xbd8c2a8d	-0.068440534
205	0xbd864355	-0.06555811
206	0xbcd3b341	-0.02584231
207	0xbd650384	-0.055911556
208	0xbce1595a	-0.027508426
209	0xbcfd9230	-0.030953497
210	0xbc4d452c	-0.012528699
211	0xbc799be6	-0.015234923
212	0x3c23fdb6	0.01000922
213	0xb9995dce	-0.00029252324
214	0xbd3284c2	-0.04358364
215	0x3c7ffb56	0.015623888
216	0x3cb6da40	0.022320867
217	0x3cd9487e	0.026523825
218	0xbd02849a	-0.03186474
219	0xbd4f81ca	-0.050660886
220	0x3ba30f19	0.004976165
221	0x3c6539b7	0.013990811
222	0x3b84478a	0.0040368484
223	0xbcd85469	-0.026407437
224	0x3cd8b41d	0.026453072
225	0xbbb7964e	-0.0056026345
226	0xbd3e1e1b	-0.04641543
227	0xbd802072	-0.062561885
228	0xbd85142c	-0.06497988
229	0xbcf0167b	-0.029307595
230	0xbd26b388	-0.040698558
231	0xbda0fd01	-0.07860757
232	0xbd81e416	-0.06342332
233	0xbd5ab5bc	-0.05339597
234	0xbcbd1091	-0.023079189
235	0xbd6a3f64	-0.05718936
236	0xbd4e9907	-0.050438907
237	0xbd381b07	-0.04494765
238	0xbd6a73a2	-0.057239182
239	0xbcdd88ae	-0.027042713
240	0xbcaa2b9e	-0.020772751
241	0xbc16ccc5	-0.009204094
242	0xbcc7681a	-0.024341632
243	0xbd29f721	-0.041495446
244	0x3c12f1a2	0.008968743
245	0x3b84bdf8	0.0040509664
246	0xbd8ecc6e	-0.069725856
247	0xbd983a19	-0.07432956
248	0xbc8a941e	-0.01691633
249	0xbc8cc5be	-0.017184135
250	0xbc7cbdb1	-0.015426085
251	0x3d417703	0.04723264
252	0xbcd6e328	-0.026231363
253	0xbc5ff507	-0.013669259
254	0xbd5fd641	-0.054647688
255	0xbc8b6ce7	-0.017019702

conv2.bias f4 [32]
0	0xbda30059	-0.07959051
1	0xbdd0b44c	-0.10190639
2	0xbe3d3fc8	-0.18481362
3	0xbe41b0c3	-0.18915085
4	0xbea1a093	-0.3156782
5	0xbe0b3d39	-0.13597573
6	0xbe166ebd	-0.14690681
7	0xbde04ea0	-0.109524965
8	0xbd33e361	-0.043918017
9	0xbdde014d	-0.10840092
10	0xbe5a46bd	-0.21316047
11	0xbe18f18d	-0.14935894
12	0xbe66ac24	-0.22526604
13	0xbe3a347f	-0.18184088
14	0xbd22844c	-0.03967695
15	0xbab5234b	-0.0013819722
16	0xbea0de31	-0.3141952
17	0xbe49f38a	-0.19721809
18	0xbdc5f491	-0.09665788
19	0xbe24e49e	-0.16102836
20	0xbdc1e8e2	-0.09468247
21	0x3bbe4348	0.0058063604
22	0xbe3bac45	-0.18327434
23	0xbd733b37	-0.059382644
24	0xbd8c2e1d	-0.06844733
25	0xbe36cfad	-0.1785266
26	0xbe3dfe91	-0.1855414
27	0xbe2e2784	-0.17007262
28	0xbe819dbd	-0.25315657
29	0xbe071f71	-0.13195588
30	0xbd6c9656	-0.05776056
31	0xbe3243ca	-0.17408672

conv3.weight f4 [64, 32, 5, 5]
0	0xb992aaaa	-0.00027974445
1	0x3c9e81aa	0.019348938
2	0x3d5851e1	0.05281246
3	0x3d08a602	0.033361442
4	0x3c4dba70	0.012556657
5	0xbd196902	-0.03745366
6	0x3c89dd57	0.016829176
7	0x3c4f5879	0.012655371
8	0x3daac544	0.08338407
9	0x3d499179	0.049211
10	0x3c99a3e9	0.018754916
11	0x3d2367ed	0.039894033
12	0xbc67bd41	-0.014144243
13	0x3d2df051	0.04246551
14	0xbca661eb	-0.020310363
15	0x3d4a163a	0.049337603
16	0x3d0ead9a	0.034833528
17	0xbb86fe1b	-0.004119647
18	0xbc7043a5	-0.014664565
19	0xbbe1f74c	-0.006895935
20	0xbc194fb6	-0.0093573835
21	0xbd1c9a7f	-0.038233276
22	0xbcbd3bad	-0.023099745
23	0xbd1c5ae2	-0.03817261
24	0x3d079d7f	0.033109184
25	0xbd18ec78	-0.03733489
26	0x3b8b02e5	0.0042422884
27	0x3cb4a412	0.022050891
28	0x3d55d885	0.052208442
29	0x3d313587	0.04326394
30	0x3cd35686	0.025798094
31	0xbd977a4c	-0.07396373
32	0x3cc8281a	0.024433184
33	0x3d37f19f	0.044908162
34	0x3c1593f0	0.009129509
35	0x3c884766	0.016635608
36	0x3c2dfaad	0.010618848
37	0xbb368d50	-0.0027855225
38	0x3d0adf44	0.03390433
39	0x3d826e8d	0.06368742
40	0xbc6e1a2b	-0.014532606
41	0x3cb1ab06	0.021687996
42	0xbc5fde33	-0.013663816
43	0x3d735550	0.059407532
44	0x3cf3b214	0.029748
45	0x3d470826	0.048591755
46	0x3ca7219c	0.020401768
47	0x3d2da8b7	0.042397227
48	0x3d637561	0.055531863
49	0x3ca38060	0.019958675
50	0xbc00bf97	-0.007858179
51	0xbc923a74	-0.017850138
52	0x3cce37b0	0.025173038
53	0xbbb918aa	-0.005648692
54	0x3a98e215	0.0011664057
55	0x3cc4288a	0.023945112
56	0x3a081bc7	0.00051921274
57	0xbcc50d96	-0.02405433
58	0xbc05eec8	-0.008174606
59	0xbd2270ee	-0.03965848
60	0xbd032a65	-0.032022852
61	0xbcb7db69	-0.02244349
62	0xbd9b696b	-0.07588466
63	0xbbbe94e3	-0.0058160885
64	0xbd0e9ea3	-0.034819257
65	0xbc30571b	-0.010762955
66	0xbd8ed32b	-0.06973871
67	0xbd28083d	-0.04102348
68	0x3bceda93	0.006312677
69	0x3c107a45	0.008818214
70	0xbb2a3cac	-0.0025976105
71	0x3cf73f74	0.030181624
72	0x3c8a8f77	0.016914112
73	0xbc4763fc	-0.012169834
74	0x3daa4a71	0.0831498
75	0xbcd8ef8d	-0.026481414
76	0x3bdbb0ea	0.0067044394
77	0xbc89885a	-0.01678865
78	0xbcdcd0ee	-0.026955094
79	0x3d4abcf8	0.04949662
80	0x3c2bb7a5	0.010480796
81	0xbbec1c03	-0.0072054877
82	0x3d5c2c3d	0.053753126
83	0xbc9f5149	-0.01944794
84	0xbaabbad7	-0.0013101947
85	0x3c07231d	0.008248118
86	0xbaf63353	-0.0018783606
87	0x3d853c0b	0.06505593
88	0x3dd11a6f	0.1021012
89	0x3d7705e3	0.06030835
90	0xbd77d260	-0.060503364
91	0xbd0a28e9	-0.03373042
92	0xba13ce8a	-0.00056383817
93	0x3de5f737	0.11228793
94	0x3caf1dc4	0.021376498
95	0xbd065941	-0.032799963
96	0xbd60f7da	-0.05492387
97	0xbd1eaacb	-0.0387371
98	0x3b015a00	0.0019737482
99	0xbd2f98b3	-0.042870235
100	0x3ba03ad0	0.0048898235
101	0xbd34129d	-0.043963064
102	0xbd81ce08	-0.063381255
103	0xbce23a95	-0.027615825
104	0xbc98a142	-0.018631581
105	0x3c7ab218	0.01530125
106	0xbdb2112a	-0.0869468
107	0xbd35e3d3	-0.044406723
108	0xbca7169a	-0.02039652
109	0xbd3dd6a1	-0.046347264
110	0x3d357a2b	0.04430596
111	0xbc5913c3	-0.0132493405
112	0xbc9c9fd5	-0.019119183
113	0x3cb3cc9d	0.021948153
114	0x3d9ea44f	0.07746183
115	0xbcbb01e8	-0.022828057
116	0xbc4c4346	-0.012467211
117	0xbd186a2d	-0.037210632
118	0xbcd34c2a	-0.025793154
119	0x3caf46ed	0.021396125
120	0xbc83bbd3	-0.016080773
121	0xbd44a096	-0.04800471
122	0xbd1fdb0c	-0.03902726
123	0xbcc52678	-0.024066195
124	0x3aa0b7be	0.0012261791
125	0x3c862404	0.016374595
126	0xbc341f93	-0.010993856
127	0x3b5d7b70	0.0033795498
128	0x3c8edd1f	0.017439423
129	0xbca6a094	-0.020340241
130	0xbd22d968	-0.039758116
131	0xbd2b7678	-0.041861027
132	0x3ca2cbe5	0.019872615
133	0xbad826ea	-0.001649109
134	0xbd1bca9b	-0.038035017
135	0xbd8f1acf	-0.06987535
136	0xbcf231a0	-0.029564679
137	0x3cc05a08	0.02348043
138	0x3cdaa24d	0.02668872
139	0xbd17728c	-0.036974475
140	0xbcb8f84d	-0.022579337
141	0x3c040273	0.008057225
142	0x3d6452c9	0.055743013
143	0x3d80191b	0.062547885
144	0x3c3e5884	0.011617783
145	0x3d155726	0.036460064
146	0x3d3e382c	0.04644029
147	0x3cfb6525	0.030687878
148	0x3d381b95	0.04494818
149	0x3cb3e574	0.021959998
150	0x3c8594a7	0.016306235
151	0x3b8ae8cd	0.004239178
152	0xbc2ba341	-0.0104759345
153	0xbc5f613a	-0.01363402
154	0x3d2d5a06	0.04232218
155	0x3c6246c7	0.01381082
156	0x3b8f41ca	0.0043718563
157	0xbd3a8c1d	-0.04554378
158	0xbc5e027d	-0.013550398
159	0x3c9d66dc	0.019214086
160	0x3cf3cc6a	0.029760558
161	0x3d020cba	0.03175042
162	0xbd17c70d	-0.037055064
163	0xbcead142	-0.028664235
164	0x3c8dfce0	0.017332494
165	0xbab67bb7	-0.0013922368
166	0x3bf3b3eb	0.0074372194
167	0xbbc2451f	-0.00592865
168	0x3af6eff0	0.0018839817
169	0x3cb60b3f	0.02222216
170	0xbcde5c4b	-0.027143618
171	0xbd460c8d	-0.048351813
172	0x3cad3922	0.021145407
173	0x3ca67083	0.020317322
174	0x3bf1a831	0.0073747863
175	0x3d875f53	0.066099785
176	0x3d08ae87	0.033369567
177	0x3d5b6c0d	0.053569842
178	0x3c945b51	0.01810995
179	0x3d520c9e	0.051281564
180	0x3d404d87	0.046948936
181	0x3c6f4c84	0.014605645
182	0x3c42a21d	0.011879471
183	0xbc847aad	-0.016171778
184	0x3c283dac	0.01026861
185	0xbcd6b075	-0.026207188
186	0xbcb7f9e4	-0.022458024
187	0xbd7b15e9	-0.061300192
188	0xbd3c7586	-0.046010517
189	0x3cba2c7b	0.022726288
190	0xbca9454d	-0.020662928
191	0xbc3f875e	-0.011689989
192	0xbd714d9b	-0.0589119
193	0xbd0b8d8d	-0.03407054
194	0xbd23d50b	-0.039998095
195	0xbd3d6a83	-0.046244156
196	0x3d0bf2fe	0.034167282
197	0xbd54fdbc	-0.051999792
198	0x3d3444b6	0.04401084
199	0x3afa3ec4	0.0019092192
200	0x3d223122	0.039597638
201	0xba9b3eba	-0.0011844255
202	0xbba6d6fb	-0.0050915456
203	0x3d062773	0.032752465
204	0x3d323f3b	0.043517333
205	0xbca5ada5	-0.020224402
206	0xbbe322c5	-0.006931635
207	0x3d3ad197	0.045610037
208	0x3bca2e87	0.0061700973
209	0x3c751c88	0.014960416
210	0xbb0040d6	-0.0019569895
211	0xbd1f1b03	-0.03884412
212	0xbd641a70	-0.055689275
213	0x3b9207ab	0.0044564805
214	0xbc822892	-0.015888486
215	0x3cb6dc10	0.02232173
216	0xbd08ae2d	-0.033369232
217	0x3ab7de09	0.0014027964
218	0xbcc88b8b	-0.024480602
219	0xbc3801d7	-0.011230907
220	0x3ceaa34c	0.02864232
221	0xbaae292e	-0.0013287419
222	0xbc476ad7	-0.012171469
223	0xbd1a8f58	-0.03773436
224	0xbd0897c8	-0.033347875
225	0xbc2b01f7	-0.01043748
226	0x3d68c912	0.05683238
227	0x3d629e7c	0.055326924
228	0x3cfe364e	0.031031754
229	0x3cc7da36	0.024396043
230	0xbcabf635	-0.020991424
231	0xbd3a75a4	-0.045522347
232	0x3d509ff1	0.050933782
233	0xbc417208	-0.011806972
234	0x3cd74e76	0.02628253
235	0xbd0e0333	-0.03467102
236	0xbcce8f51	-0.025214823
237	0xbc21f813	-0.009885806
238	0xbd0b5bdb	-0.034023147
239	0xba7e3747	-0.0009697568
240	0x3d396e71	0.04527134
241	0x3cc806a8	0.024417236
242	0xbb26337a	-0.0025360272
243	0xbd00585b	-0.031334262
244	0xbd695263	-0.056963336
245	0x3d997e95	0.07494847
246	0x3d5f372a	0.054495968
247	0x3d641a74	0.05568929
248	0xbbf07b23	-0.007338898
249	0x3d8130f4	0.06308165
250	0x3d51dd25	0.05123629
251	0x3d8f4ab4	0.0699667
252	0x3c8913aa	0.01673301
253	0xbd4225ea	-0.04739944
254	0xbd387d58	-0.045041412
255	0xba82ceb4	-0.0009979815

conv3.bias f4 [64]
0	0xbcd7f1d9	-0.02636044
1	0x3d156347	0.03647163
2	0x3d4b3d3d	0.04961895
3	0xbc5c015c	-0.0134280585
4	0xba07f4ee	-0.00051863387
5	0xbd3810d9	-0.044937942
6	0xbc600d7e	-0.013675092
7	0xbcb7ded8	-0.022445127
8	0x3ca99f58	0.020705864
9	0xbcfee067	-0.031112863
10	0xbdb97a9b	-0.09056588
11	0x3c94d572	0.018168185
12	0x3ca5d12c	0.020241342
13	0xbd70ff42	-0.058837183
14	0xbd1f74df	-0.038929816
15	0xbcf5e71b	-0.030017426
16	0xbcd695cc	-0.026194476
17	0x3ceadd85	0.028670082
18	0xbbfecf95	-0.0077762106
19	0x3c98f284	0.018670328
20	0x3ac0ff34	0.0014724494
21	0xbcd76f0b	-0.026298067
22	0xbccd78e1	-0.025082054
23	0xb9e76126	-0.00044132135
24	0xbd4f28d4	-0.050576046
25	0x3ba09b80	0.0049013495
26	0x3d817dfb	0.06322857
27	0x3d7a69d2	0.061136074
28	0xbd231c83	-0.039822113
29	0xbc2d2392	-0.010567563
30	0xbd9d97c1	-0.076949604
31	0x3d3af236	0.045641147
32	0x3d2153fb	0.03938673
33	0xbd625f52	-0.055266686
34	0xbd7401d8	-0.05957207
35	0xbd11bdcd	-0.0355814
36	0xbdbc56c6	-0.09196238
37	0x3cc9507d	0.024574513
38	0x3d4efbdf	0.05053317
39	0xbbbe8969	-0.0058147204
40	0x3c01389a	0.00788703
41	0x3ce407e9	0.027835803
42	0xbc4020fc	-0.011726614
43	0x3d804a22	0.0626414
44	0xbd4f1d1a	-0.050564863
45	0x3baa7d75	0.005202944
46	0x3c8a7cfc	0.0169053
47	0x3c0fcd7f	0.008777021
48	0xbd5e3bd2	-0.054256268
49	0xbd87249d	-0.0659878
50	0xbb93dc26	-0.0045123277
51	0x3d2bb22d	0.04191797
52	0x3ddb0a89	0.10695369
53	0xb986d503	-0.00025717178
54	0x3d20d5e6	0.03926649
55	0xbc356cdf	-0.01107332
56	0x3cedb701	0.029017927
57	0x3c9a4349	0.018830912
58	0x3ce1e1db	0.027573517
59	0xbd23cc42	-0.039989717
60	0xbd8ca4a8	-0.06867343
61	0x3d0421db	0.03225885
62	0x3d804ea6	0.06265001
63	0xbd986fcb	-0.07443198

fc.weight f4 [10, 1024]
0	0xbd6e6ce4	-0.058209315
1	0xbd34bc3e	-0.044124834
2	0xbcc689db	-0.024235656
3	0x3dbfdb6c	0.09368023
4	0xbd93061d	-0.071789004
5	0xbd3905c0	-0.0451715
6	0x3e31204b	0.17297475
7	0x3e291553	0.16512041
8	0x3dc5a2fa	0.09650226
9	0x3df65461	0.12027813
10	0x3c6a4aa0	0.014300019
11	0x3dd91953	0.10600533
12	0xbd30f5cf	-0.04320317
13	0xbcb9a14c	-0.02265992
14	0xbd9fd1a1	-0.078036554
15	0xbe0ffbd0	-0.14060903
16	0x3d35ba47	0.0443671
17	0x3c3fa8b9	0.011697941
18	0x3d276a6d	0.04087298
19	0x3d4562e4	0.048190013
20	0xbcdce750	-0.026965767
21	0x3c8cce91	0.017188342
22	0xbdafea28	-0.08589584
23	0xbdea111a	-0.11429043
24	0xbdf852cb	-0.121251665
25	0x3e0adbab	0.13560359
26	0x3d6ec683	0.058294784
27	0xbddc201d	-0.107483126
28	0xbd0557b2	-0.032554336
29	0xbb197f5f	-0.0023421866
30	0xbd1062d0	-0.035250485
31	0x3bab0b0f	0.005219824
32	0xbe033b87	-0.12815677
33	0x3d4a553f	0.049397703
34	0x3dc9b37e	0.098486885
35	0x3c21c2a6	0.009873068
36	0xbdb5e31e	-0.0888121
37	0xbdae4676	-0.08509533
38	0x3dc028b6	0.09382765
39	0x3da497cf	0.08036768
40	0x3d9d708c	0.07687482
41	0xbdd0dd77	-0.10198491
42	0xbd1d388d	-0.03838401
43	0xbcaf7589	-0.02141835
44	0x3e0b9171	0.136297
45	0xbd4354db	-0.047688346
46	0xbd5eb3a2	-0.05437053
47	0xbc8e98b8	-0.017406806
48	0x3d037fbc	0.03210424
49	0x3cf9d603	0.030497557
50	0xbc215a38	-0.00984817
51	0x3d1499e1	0.036279563
52	0x3d67c43a	0.05658362
53	0x3d798d09	0.060925517
54	0x3d938b31	0.07204283
55	0x3d657642	0.056020983
56	0x3d80b093	0.06283679
57	0x3e181944	0.14853388
58	0x3d4032ff	0.046923634
59	0x3d7811f3	0.060563993
60	0xbbfc8da3	-0.007707314
61	0xb9958325	-0.00028517205
62	0xbd129124	-0.035782948
63	0x3d519b58	0.051173538
64	0x3be12707	0.0068711075
65	0x3d79c1bb	0.06097577
66	0x3d47ab8e	0.04874759
67	0xbe0110e2	-0.12604097
68	0xbc196594	-0.009362597
69	0x3e044539	0.12917031
70	0xbd3c5673	-0.045980882
71	0xbdebe8f3	-0.11519041
72	0x3d9c08af	0.07618844
73	0x3e3088a4	0.17239624
74	0x3ca57152	0.020195637
75	0xbd1067dd	-0.0352553
76	0x3c5370d3	0.012905317
77	0xbe330a49	-0.17484392
78	0xbc2a771c	-0.010404374
79	0x3e1a65d8	0.15077913
80	0x3d75b9ee	0.05999177
81	0xbdac7197	-0.08420103
82	0xbda9ba7c	-0.08287522
83	0x3db2ecf1	0.08736599
84	0x3c932d78	0.017966017
85	0x3c647028	0.013942756
86	0x3d3d6344	0.046237245
87	0x3d6c932f	0.057757553
88	0xbd3b818d	-0.045777846
89	0xbd81ed8b	-0.06344136
90	0x3da5458e	0.08069907
91	0x3d904f70	0.070464015
92	0x3b7d9221	0.0038691836
93	0x3ddbc2f8	0.10730547
94	0xbd04736b	-0.032336634
95	0xbb9ca6b1	-0.0047806134
96	0xba6a5f08	-0.00089405524
97	0x3cf16a29	0.029469566
98	0xbd385b81	-0.04500914
99	0xbd1167f7	-0.03549954
100	0xbc1043f0	-0.00880526
101	0x3de41726	0.11137228
102	0xbd9c0982	-0.07619001
103	0xbd97845b	-0.07398292
104	0xbe439783	-0.19100766
105	0x3db46adb	0.088094436
106	0x3deef82b	0.11668428
107	0xbdbd74d2	-0.09250797
108	0xbd1c2060	-0.038116813
109	0xbe4522ad	-0.19251509
110	0xbd835ff2	-0.064147845
111	0x3dc1d339	0.09464116
112	0xbc95d65f	-0.018290697
113	0xbd0db1b0	-0.034593284
114	0x3dae6b6f	0.08516585
115	0x3d779f64	0.06045474
116	0xbd60d34a	-0.054889
117	0xbda4250c	-0.08014879
118	0x3d0b8e4e	0.03407126
119	0xbda080ae	-0.07837044
120	0xbcd0dec1	-0.025496842
121	0xbdd3cd2e	-0.10341869
122	0x3cd4d4bc	0.025980346
123	0xbd029db2	-0.03188867
124	0xbca46698	-0.020068452
125	0xbcd72922	-0.02626473
126	0xbd9e4df8	-0.07729715
127	0xbe077ee3	-0.13231997
128	0x3d0e6d98	0.034772485
129	0xbcb37faf	-0.02191147
130	0xbdf50682	-0.11964132
131	0xbc881c0d	-0.016614938
132	0xbd1b1b56	-0.037867866
133	0x3c8804fa	0.016603936
134	0xbd15d8b8	-0.036583632
135	0x3d8c4b5d	0.06850312
136	0xbd7f1095	-0.062271673
137	0xbe264a01	-0.16239168
138	0x3dbb3cb8	0.091424406
139	0x3e00b2c6	0.12568197
140	0x3d28b16a	0.04118482
141	0xbe0c788d	-0.13717861
142	0xbdbbe847	-0.09175163
143	0x3d5d3720	0.05400765
144	0x3ca513fc	0.02015113
145	0x3ce1d778	0.027568564
146	0x3d922842	0.07136585
147	0x3dc35bb6	0.09538977
148	0xbca64cb2	-0.020300243
149	0x3d9ae9a8	0.07564098
150	0x3e1a1bd2	0.15049675
151	0xbd33fd67	-0.043942835
152	0x3de7f71e	0.11326431
153	0xbb8f8ff4	-0.004381174
154	0xbc87c373	-0.01657269
155	0x3da2eb58	0.079550445
156	0x3e0d5984	0.13803679
157	0x3d26bf72	0.04070992
158	0x3c5e7b59	0.013579213
159	0x3d987bbf	0.07445478
160	0x3b8a3ea0	0.0042188913
161	0x3d845f93	0.06463542
162	0xbcec78b7	-0.028866155
163	0x3d253cab	0.04034106
164	0xbc9bd509	-0.019022482
165	0xbcbdeb82	-0.023183588
166	0x3d01b0d9	0.031662796
167	0x3c8e82c0	0.01739633
168	0x3ddeccf5	0.10878936
169	0x3d94167f	0.07230853
170	0xbba86cf8	-0.005139943
171	0x3d839f08	0.06426817
172	0x3cd60daa	0.026129562
173	0x3dd888b6	0.105729505
174	0x3d7698e6	0.06020441
175	0x3c82261e	0.015887316
176	0x3c17f9e1	0.009275884
177	0x3c9a2ca4	0.018820114
178	0x3d6a81b9	0.05725262
179	0x3c815ef3	0.015792346
180	0x3db0af81	0.08627225
181	0x3e1d4524	0.15358406
182	0x3c48b8c0	0.012251079
183	0x3d19bc43	0.037533056
184	0x3da7b83c	0.08189437
185	0xbe24698a	-0.16055885
186	0xbd7dc59a	-0.061956026
187	0xbc99e336	-0.0187851
188	0xbd29bb57	-0.041438427
189	0x3daf7713	0.085676335
190	0x3e11b7eb	0.14230315
191	0x3d7e46a6	0.062079094
192	0xbd6614cf	-0.05617219
193	0x3d7ee356	0.062228523
194	0x3d2a0a9e	0.04151403
195	0xbd19a83a	-0.03751395
196	0xbcdbe1dd	-0.026841098
197	0x3c7b641d	0.015343693
198	0x3ba3d7d2	0.005000093
199	0x3e055ace	0.1302292
200	0xbd654da5	-0.05598225
201	0xbdf95d7a	-0.12176032
202	0xbd06cca9	-0.032910023
203	0x3d6f4682	0.05841685
204	0x3d04af43	0.032393705
205	0x3bf6df0b	0.007533913
206	0xbd7f7b55	-0.062373478
207	0x3b8a4ae6	0.0042203544
208	0x3d9eef4f	0.07760488
209	0x3d7b9db8	0.06142971
210	0xbd87e0b0	-0.066346526
211	0x3c9546f1	0.018222304
212	0xbbfae2c8	-0.007656429
213	0x3d8641ca	0.06555517
214	0x3df4529a	0.119298175
215	0xbb746031	-0.003728878
216	0xbd832f33	-0.06405487
217	0x3c6b6bff	0.01436901
218	0x3df31450	0.11869109
219	0xbd4dfebd	-0.050291765
220	0x3dfdc7c5	0.12391619
221	0x3defa55c	0.11701462
222	0x3cedc9fb	0.029026976
223	0x3e0d0d1f	0.13774537
224	0xbcfa1a11	-0.030530008
225	0x3d048dd1	0.03236181
226	0x3db02a80	0.08601856
227	0x3d2591e1	0.040422324
228	0x3d8d0a83	0.068867706
229	0x3e10109e	0.14068839
230	0x3cfa3e16	0.030547183
231	0xbbff8cb8	-0.0077987574
232	0x3d4a0f90	0.049331248
233	0x3db33fb3	0.08752384
234	0x3e1fa35a	0.15589657
235	0x3df55cf8	0.11980623
236	0x3dc622f5	0.09674636
237	0xbd86aabd	-0.065755345
238	0xbd6b4595	-0.057439405
239	0x3dd8c8af	0.10585152
240	0xbd0c7279	-0.034288857
241	0x3d642996	0.055703722
242	0x3ca1f488	0.019769922
243	0xbb4cbb03	-0.0031239397
244	0x3da8aba9	0.082358666
245	0x3c90d3e8	0.01767917
246	0x3d522cbe	0.0513122
247	0x3c2b2a67	0.010447121
248	0x3d7f9479	0.062397454
249	0x3d7e81b8	0.06213543
250	0x3ce686bb	0.028140416
251	0xbc4083f9	-0.011750215
252	0xbe25a55c	-0.16176361
253	0xbe138fb5	-0.14410289
254	0x3d51b31c	0.051196203
255	0x3dd2be44	0.102901965

fc.bias f4 [10]
0	0x3c483ac4	0.012221042
1	0xbdd1e1a0	-0.10248113
2	0x3d003242	0.03129793
3	0x3dfdf1ae	0.12399612
4	0x3ded8cf9	0.11599154
5	0xbdaedbbf	-0.08538007
6	0x3b99c13c	0.004692225
7	0xbd94d8c6	-0.07267909
8	0x3d079d84	0.033109203
9	0xbd930a90	-0.07179749
